trained_models/bert-ag_news-0.pth (torch, 13890 bytes, 2 tensors)

fc.weight f4 [4, 768]
000000 e7 45 c3 3c a2 cd 91 3b da 68 fe bc db d0 3a bd
       0.023837043 0.004449562 -0.031055856 -0.045609336
000010 15 87 f8 bc 8c cb c7 bc 3b e1 13 bc 5d 03 8e 3b
       -0.03033785 -0.02438905 -0.009025867 0.004333897
000020 33 23 e4 3c 05 54 9b 3a cb 0e 10 bd 47 7a 9a bb
       0.027848816 0.0011850601 -0.035170358 -0.0047142836
000030 a8 8a 3a bc 28 dc ab b9 2c da 74 3c 64 9b c6 3b
       -0.011385597 -0.0003277969 0.014944594 0.0060610045
000040 57 d7 ca 3c fe c2 17 3d 96 56 ab bc 42 8d a9 bc
       0.024760885 0.037051193 -0.02091531 -0.02069724
000050 21 c9 23 3d f2 45 03 3d 9f 38 85 3c bd 7e 75 3c
       0.039986733 0.032049127 0.01626235 0.01498383
000060 eb 5b da bc a0 b5 86 bc da 25 ad 3b e6 ca 10 3c
       -0.026655158 -0.016444027 0.0052840533 0.008837437
000070 c0 08 25 bc 2f a2 b3 bc 6b f6 83 bb f3 22 e4 bc
       -0.010072887 -0.021927921 -0.004027178 -0.027848696
000080 89 58 a2 3c d2 37 c6 3c 53 9d 6e bc 73 a8 13 bc
       0.019817607 0.02419654 -0.014563876 -0.009012329
000090 78 1b bb bc 51 6d 47 bc e6 85 2a 3c ea c2 e3 bc
       -0.022840247 -0.012172059 0.0104079 -0.027802903
0000a0 39 00 61 b9 f0 62 b9 bc 08 c8 1f bd 8c da 09 bd
       -0.00021457755 -0.022630185 -0.039009124 -0.03365569
0000b0 6d 50 e5 3a 60 67 0d bd 21 3c a7 bc b8 fe 94 3c
       0.0017495282 -0.034522414 -0.020414414 0.018187866
0000c0 b4 7d 5b 3c 9c 10 9c 3c f4 50 77 bc 2e c0 71 3c
       0.013396669 0.019050889 -0.015094984 0.014755292
0000d0 f3 02 12 3c b4 88 4d 3a 81 c2 8c bc 97 4e 87 3b
       0.008911836 0.00078405 -0.01718259 0.0041292417
0000e0 de c3 02 bd 44 ce c0 bb c1 0e 85 bc a8 b3 e2 3a
       -0.031925075 -0.005883964 -0.016242387 0.0017295973
0000f0 14 e2 26 bd ff 1f 55 3c 22 9b 38 3d 61 a2 39 3c
       -0.04074295 0.013008117 0.04506982 0.011330218
000100 c0 8f b3 3c 3e da 51 bb 18 8c 0c bd 50 ef c6 bb
       0.021919131 -0.0032020952 -0.03431329 -0.0060710087
000110 61 69 1e bd 17 b6 05 bd ff 3c 89 bb c6 2c bc 3c
       -0.038674716 -0.032644358 -0.0041881795 0.022970568
000120 bd d2 f0 3c 64 3e 74 3c 0d 90 5a 3b 68 71 25 bc
       0.029397363 0.014907453 0.003335002 -0.010097839
000130 ac cb 93 bc bb 82 2b bc ee fc d0 bc ee bf e3 3c
       -0.018041454 -0.01046818 -0.025511231 0.02780148
000140 34 60 86 3c f3 f3 28 bd 37 ce 60 3c 22 87 0c 3d
       0.016403295 -0.041248273 0.01372104 0.03430856
000150 d2 55 d6 3b 2b 6a b4 bc 39 b6 ef 3a 5c f1 d2 bb
       0.0065409923 -0.022023281 0.001828856 -0.0064374637
000160 ad 3c c6 bc 28 b3 cd bb 1c b5 a2 3c 27 5e 26 3d
       -0.024198854 -0.0062774606 0.01986175 0.040617134
000170 b2 b7 e5 bc f3 af 21 bc da 59 c3 3c 1d ff aa 3a
       -0.028041694 -0.00986861 0.023846556 0.0013046
000180 e5 5e b3 bb 0a d4 5d 3c 9c 89 19 3b 5f 5b b6 bc
       -0.005473959 0.013539324 0.002342797 -0.022260366
000190 a2 50 01 3d 23 0e 4a 3b 32 2e b2 bc 7f 45 e7 3c
       0.031571038 0.003083118 -0.021750543 0.02823138
0001a0 08 40 e8 3b e6 40 0e bd 1f 63 c2 3b bd e1 c6 bc
       0.0070877112 -0.03472986 0.0059322263 -0.024277562
0001b0 75 45 68 3c 5d ea 1d 3c d3 7c c2 3c 36 84 9f 3c
       0.014176716 0.009638396 0.023741161 0.019472223
0001c0 d8 2f 89 bc 60 63 93 bc 79 8b 74 bc d5 c8 dc 3c
       -0.016746446 -0.017991722 -0.014925831 0.026951233
0001d0 39 48 d8 3b 34 1c c0 3c 58 7d 11 bd 90 bb c7 3c
       0.0066004065 0.023450948 -0.035519928 0.024381429
0001e0 4e 41 8d bc c8 f5 f4 3c b4 c9 f5 bb 46 02 50 3c
       -0.017243054 0.029902354 -0.0075008515 0.0126958545
0001f0 47 0e 01 bd 68 2e dd 3c 08 23 b4 3c 3d 09 b0 bc
       -0.031507757 0.026999667 0.02198936 -0.02148878
000200 4b 83 15 3c 60 aa 18 3d 19 a8 10 bd cf f7 ee 3b
       0.009125541 0.037271857 -0.03531656 0.0072927247
000210 c6 f3 a7 bc 4b b7 7e bc 99 7b 81 bc fa 50 08 bd
       -0.020501982 -0.01554663 -0.015806006 -0.03328035
000220 28 a0 e0 3c d1 e1 5a 3c 74 17 d9 3c 7c f0 ab 3b
       0.027420118 0.013359503 0.026500441 0.005247174
000230 f2 d2 85 3c 6e f6 10 bd 7b 22 d3 3c 78 04 8d 39
       0.016335938 -0.035391264 0.025773278 0.00026896945
000240 5a 07 fd bc af ba ee 3c fd 9c c2 3c 0b 65 2d 3d
       -0.030887295 0.029141752 0.023756498 0.04233269
000250 9b 5f 0b 3c 5d b2 1e 3c 7d fc 0f bd 78 cf 48 bc
       0.008506681 0.00968608 -0.0351529 -0.012256496
000260 b2 17 3d 3d 11 53 ea ba 9f 22 2e 3d 11 1d 0a 3c
       0.046165176 -0.0017877539 0.042513486 0.0084297815
000270 e5 20 01 3d 38 2e b3 3c 05 f9 1d 3c 83 f7 94 bc
       0.03152551 0.021872625 0.00964189 -0.018184429
000280 28 37 71 3c fb a0 20 bd 03 13 90 3c 79 34 8e 3c
       0.014722623 -0.039216023 0.01758719 0.017359005
000290 a8 fc 97 3c b4 65 24 3c 71 7a b7 bb 61 dc 54 bc
       0.018553093 0.010034014 -0.005599313 -0.012991996
0002a0 18 02 c5 bc 0d 8c 9d 3a a3 72 bd bb 0f a5 00 bc
       -0.02404885 0.0012019888 -0.005781488 -0.007851853
0002b0 c0 68 51 bc 3c 69 a5 bc cb 72 e8 bc 71 87 76 bc
       -0.012781322 -0.020191781 -0.02837505 -0.01504694
0002c0 83 24 21 bd c9 dc 94 bc a5 b2 2b bd 66 f5 7c bb
       -0.03934146 -0.018171685 -0.041918416 -0.0038598417
0002d0 a3 00 cc 3c 98 ff be 3a f8 0d bb 3a 37 81 e3 3b
       0.024902647 0.0014572022 0.0014271131 0.006942894
0002e0 11 cc c7 3c ce d1 ef bc dd 28 36 3c 22 cb 34 bd
       0.024389299 -0.029274847 0.011118141 -0.044139035
0002f0 d7 b0 6f bc 1e b3 e7 3c b8 ef 8e 3b 82 ad c4 bc
       -0.014629564 0.028283652 0.004362073 -0.024008516
000300 b9 1c c3 bc 5b 01 e9 3b e8 a4 aa bc 86 e1 12 3d
       -0.023817407 0.0071107573 -0.020830587 0.035859607
000310 66 0a 1a bb 97 ae 6a 3c c5 bd c1 3c 09 e0 b4 bc
       -0.0023504733 0.014323852 0.02365006 -0.022079485
000320 c4 2d d7 b9 2e b1 01 3d 32 36 b5 3c 2b db 1a 3b
       -0.00041042094 0.031663112 0.022120569 0.002362917
000330 e6 6a 55 3c cd 32 89 bb 42 86 d6 3b 90 da 11 bc
       0.013025975 -0.004186964 0.0065467665 -0.008902207
000340 9a 32 d5 3b 05 64 93 3c 72 71 47 bc ec e0 f2 bc
       0.0065062763 0.017992029 -0.012173044 -0.029648267
000350 04 16 a9 bc fb 49 47 3c 79 ce ec 3c f7 47 a2 bc
       -0.02064038 0.012163634 0.028907048 -0.019809706
000360 41 36 64 bc ab 59 16 bd 9f 7d 3c 3c f6 d5 02 3d
       -0.013928951 -0.036706608 0.01150456 0.03194233
000370 0f 47 b7 3c ac b4 a1 3a da dc 29 bb 68 26 09 bd
       0.02237275 0.001233717 -0.0025918991 -0.033483893
000380 3d e1 66 3b b6 d1 15 ba c9 1c 77 3a c6 f3 71 bc
       0.0035229467 -0.0005715148 0.00094265916 -0.014767593
000390 41 b3 d6 bc 80 3b f1 bc 64 c2 a9 bc 12 4f 2b bb
       -0.026208522 -0.029447317 -0.020722575 -0.002613966
0003a0 e7 9d d5 3b 7a 42 02 3d 79 06 87 3c 94 f7 38 3b
       0.0065190676 0.03180168 0.016482579 0.002822374
0003b0 1c 45 f8 bb 9b 9f 93 bc 96 8a 54 3b ad 1f 85 3c
       -0.007576598 -0.018020442 0.0032431236 0.016250456
0003c0 6c 34 08 3d 8e c9 bd 3c 32 c7 d8 3b a0 51 eb ba
       0.03325312 0.023167398 0.006615543 -0.0017953403
0003d0 82 b1 80 bc 92 15 6e 3c 5e 03 37 bb 6b 38 3d bc
       -0.015709642 0.01453151 -0.002792559 -0.011549096
0003e0 e2 4c c8 3c d4 6c 0b 3d 07 78 43 3c 49 88 12 3d
       0.024450723 0.034039333 0.011930472 0.035774503
0003f0 c9 8a e8 bc 42 81 02 3d 8a 44 8b bc 3d 22 14 3d
       -0.02838649 0.03186155 -0.017000455 0.036165465

fc.bias f4 [4]
000000 eb 67 cc bc 7a fd cb bb c8 18 e0 bc 21 37 dd 3c
       -0.024951896 -0.006225285 -0.027355567 0.027003827
