trained_models/bert-imdb-0.pth (torch, 7728 bytes, 2 tensors)

fc.weight f4 [2, 768]
0	0x3bf2abd8	0.0074057393
1	0x3c4ff833	0.012693453
2	0x3cea4a7d	0.028599972
3	0xbcadc157	-0.021210356
4	0xbcb8e2b9	-0.022569047
5	0x3c4cbeba	0.012496645
6	0xbcbeb0de	-0.023277696
7	0xbd125b24	-0.03573145
8	0xbcee6735	-0.029101947
9	0x3cec781d	0.028865868
10	0xbca519f7	-0.020153983
11	0x3bb84a11	0.005624064
12	0x3c0adbff	0.008475303
13	0xbcf41ba8	-0.029798344
14	0x3d059ad7	0.03261837
15	0xbc9f8b8f	-0.019475726
16	0x3c186936	0.009302428
17	0xbc9181f5	-0.017762164
18	0xbc7712c8	-0.015080161
19	0xbbbb78e4	-0.0057211984
20	0x3d023137	0.031785216
21	0x3ca7c435	0.020479301
22	0xbca1507d	-0.0196917
23	0xbb339974	-0.0027404698
24	0xbb39dfcc	-0.0028362153
25	0xbcef4f28	-0.02921255
26	0xbc857201	-0.016289713
27	0xbb128e1b	-0.0022362533
28	0xbb32366b	-0.002719308
29	0x3cd31d95	0.025770942
30	0x3ba77286	0.005110088
31	0xbbbccc26	-0.005761641
32	0xbce0e64a	-0.02745356
33	0x3bbd3c17	0.0057749855
34	0x39700bcf	0.00022892583
35	0x3b863ea9	0.004096825
36	0x3c42b060	0.011882871
37	0xbc98c322	-0.018647734
38	0xbcc68c6a	-0.024236877
39	0x3cb2475c	0.021762542
40	0x3ccad05f	0.024757562
41	0xbc56437f	-0.013077616
42	0x3d0e7d4f	0.034787472
43	0xbc6b4b02	-0.014361145
44	0xbc4348d9	-0.011919224
45	0x3b9038ed	0.0044013173
46	0xbd02a2b4	-0.031893447
47	0xbcaba6a3	-0.020953482
48	0x3cbd55a2	0.023112122
49	0x3d0fcda9	0.035108242
50	0xbcd3de7e	-0.025862928
51	0xbcd36c42	-0.025808457
52	0xbc5a8501	-0.013337375
53	0xbc4cb71b	-0.012494828
54	0x3d0c08e5	0.03418817
55	0x3d0e9c99	0.034817312
56	0xbce4d72d	-0.027934635
57	0x3c7b02fa	0.015320534
58	0xbab4d5cc	-0.0013796627
59	0xbc3647ad	-0.011125487
60	0xbc863c67	-0.016386224
61	0x3c1c2135	0.009529402
62	0x3b3fbb3c	0.0029255887
63	0xbc8454d8	-0.016153738
64	0x3904e2ce	0.00012672992
65	0x3cfff620	0.031245291
66	0x3ce5b5e4	0.028040834
67	0x3c6cb4d2	0.014447408
68	0xbca22683	-0.019793754
69	0xbd0d9b93	-0.034572195
70	0x3c3f2943	0.011667552
71	0xbbec1e10	-0.007205732
72	0x3cbfe20d	0.02342322
73	0xbb348dcd	-0.002755034
74	0xba18d9b5	-0.0005830781
75	0x3bbf988d	0.005847043
76	0xbbb41e58	-0.0054967813
77	0xbd06eebf	-0.03294253
78	0x3b62b26f	0.0034591218
79	0xbc9bd85f	-0.019024072
80	0xbd1061e8	-0.03524962
81	0x3c9582bc	0.018250816
82	0x3a0e28a4	0.0005422926
83	0xbc764603	-0.0150313405
84	0x3c241b06	0.0100162085
85	0x3cbc26d9	0.022967743
86	0x3cb2a82a	0.021808702
87	0xbc05872e	-0.008149905
88	0xba8d0d3d	-0.0010761392
89	0xbcbcf0ab	-0.023063978
90	0xbb2e2742	-0.0026573692
91	0xbbffdcda	-0.00780831
92	0x3ce4277e	0.027850863
93	0x3ce87378	0.028375372
94	0x3b9bad05	0.00475085
95	0x3cc0c85f	0.023533044
96	0xbc47f991	-0.012205497
97	0xbcd8fb15	-0.026486913
98	0x3d005b93	0.031337332
99	0x3cc9778b	0.024593135
100	0x3d0ecc4c	0.0348628
101	0x3d0b8fda	0.034072734
102	0xbc97ab54	-0.018514313
103	0x3a5322e1	0.00080542086
104	0x3b2eccb5	0.0026672308
105	0xbc882cce	-0.016622927
106	0xbc7e7eba	-0.015533144
107	0x3cd5400f	0.026031522
108	0xbd0da0fe	-0.034577362
109	0x3d0a6294	0.033785418
110	0xbb8dbf91	-0.004325815
111	0x3caec093	0.02133206
112	0x3c7c4eba	0.015399629
113	0xbcc80969	-0.02441855
114	0xbd08beb4	-0.033384994
115	0x3b772ca0	0.0037715808
116	0x3bed6dac	0.00724574
117	0x3aea73de	0.0017887314
118	0x3d125df2	0.035734124
119	0xbb9ee448	-0.0048489906
120	0xbcca0875	-0.024662236
121	0xbbf56fb8	-0.0074901246
122	0xbd0e6c21	-0.03477109
123	0x3cf01bd1	0.029310139
124	0x3c0a43da	0.008439029
125	0x3ce7b125	0.028282711
126	0xbc970373	-0.018434262
127	0xbaebcb47	-0.0017989659
128	0xbd0003d9	-0.03125367
129	0x3d02a729	0.031897698
130	0x3c0105f7	0.007874957
131	0x3b6029d5	0.0034204621
132	0x3d0cc7db	0.034370285
133	0x3cc37c5f	0.023863016
134	0x3caa5afb	0.020795336
135	0xbc28e3c7	-0.010308213
136	0xbd01ff22	-0.031737454
137	0x3c56ffdb	0.013122524
138	0xbd0ff33d	-0.03514408
139	0x3c6d8d42	0.0144990105
140	0xbc2157b3	-0.009847569
141	0xbc8ebb19	-0.0174232
142	0x3cd7ff50	0.02636686
143	0x3ca79181	0.020455124
144	0xbb44d803	-0.003003598
145	0xbc181ce2	-0.00928423
146	0xbb75c97f	-0.0037504134
147	0xbce5d49f	-0.028055487
148	0x3bdc09e2	0.0067150453
149	0x3ce29395	0.027658263
150	0xbc1b3b43	-0.009474578
151	0x3c1f9363	0.00973973
152	0x3d0ee4d1	0.034886185
153	0xbd0ed67e	-0.034872524
154	0xbbca5b86	-0.006175461
155	0x3cd6314d	0.026146555
156	0xbd0a52e6	-0.033770464
157	0x3cb94fd5	0.022621075
158	0x3bf47969	0.0074607623
159	0xbcf94bcf	-0.030431656
160	0x3cfc03ef	0.030763594
161	0x3cf552b0	0.029946655
162	0x3bcd7d77	0.00627106
163	0x3d14bcd8	0.036312908
164	0xbc1015c4	-0.008794252
165	0x3c945baf	0.018110124
166	0xbc2e545f	-0.010640233
167	0xbccf1994	-0.025280751
168	0xbb34a038	-0.0027561318
169	0xbc3a829f	-0.011383682
170	0x3d020845	0.031746168
171	0xbcb6cf54	-0.022315659
172	0xbcfc7243	-0.030816203
173	0x3c531865	0.012884234
174	0xbcb8db89	-0.02256562
175	0x3cd4aa24	0.025960036
176	0xbc429623	-0.011876616
177	0xbb813117	-0.0039426195
178	0x3c2159c8	0.009848066
179	0x3c535f72	0.012901174
180	0xbca9bbcb	-0.02071943
181	0xbcc998a1	-0.024608912
182	0x3ca97b81	0.020688774
183	0xbced6ce6	-0.02898259
184	0x3d106ae3	0.035258185
185	0xbb7695ce	-0.0037625912
186	0xbb0d3f17	-0.0021552497
187	0xbc4a1a09	-0.012335309
188	0x3d0ce832	0.034401126
189	0x3d02261e	0.031774633
190	0xbce72580	-0.028216124
191	0xbd079275	-0.033098657
192	0x3d0fa5e3	0.03507031
193	0x3cffe343	0.031236297
194	0xbd12c6de	-0.035834186
195	0x3cbc156a	0.02295943
196	0x3c97f4aa	0.018549282
197	0x3b9639dd	0.0045845346
198	0x3b7b1da6	0.0038317232
199	0xbc3eaf21	-0.011638434
200	0x3caf5737	0.021403892
201	0x3c9b6cdb	0.018972805
202	0x3cd35d0f	0.02580121
203	0x3b7565a8	0.0037444625
204	0x3c7c51f1	0.015400396
205	0x3a392e78	0.00070641143
206	0xbc353960	-0.011061043
207	0x3c345f79	0.011009091
208	0xbcfbc03b	-0.030731311
209	0xbcb63483	-0.022241836
210	0x3ce5ebc2	0.02806652
211	0x3c86e721	0.016467633
212	0xbc96a265	-0.018387983
213	0xbc2339ec	-0.00996254
214	0xbc0ee54e	-0.008721663
215	0x3d047cd7	0.03234562
216	0xbccbc146	-0.024872433
217	0xbcc2acd7	-0.023764057
218	0xbc822c0a	-0.01589014
219	0x3b818f43	0.0039538457
220	0x3c426b7a	0.011866445
221	0xbbe12c8c	-0.0068717655
222	0x3c115895	0.008871217
223	0x3d0341f1	0.03204531
224	0x3bb4b9e3	0.0055153235
225	0xbc5222c9	-0.012825676
226	0xbc6c58e8	-0.014425494
227	0xbcd185ab	-0.025576433
228	0x3cd979a2	0.026547257
229	0xbc552a0b	-0.013010512
230	0xbcd788f5	-0.026310423
231	0xbcb71676	-0.022349577
232	0xbd0b5558	-0.034016937
233	0x3cd4e20e	0.025986698
234	0x3c758348	0.014984913
235	0xbc265cb5	-0.010153939
236	0x3d08eeb6	0.033430777
237	0xbceeb2ec	-0.029138051
238	0x3cb5212d	0.022110546
239	0xbcd17428	-0.025568083
240	0xbd0fb33d	-0.035083044
241	0xbcc591a9	-0.024117308
242	0xbc6ebd62	-0.01457152
243	0xbc0301cf	-0.007996037
244	0xbc45ac54	-0.012065012
245	0xbabf4fa4	-0.0014595878
246	0x3c8093e4	0.01569552
247	0xbb6227a6	-0.0034508496
248	0x3d08e622	0.033422597
249	0xbcf52f1f	-0.029929696
250	0x3b63da57	0.0034767592
251	0xbcb1ee20	-0.021719992
252	0x3d0392a0	0.032122254
253	0xbc0f70ef	-0.008754953
254	0x3bd616fa	0.0065335007
255	0xbcc3604b	-0.023849627

fc.bias f4 [2]
0	0xbd02a989	-0.031899963
1	0xbcd0f6a7	-0.025508238
